recycler_mlp.pth (torch, 534159 bytes, 4 tensors)

0.weight f4 [256, 512]
0	0xbc9a1c5c	-0.01881235
1	0x3d18a7c0	0.037269354
2	0xbd9125e3	-0.070873044
3	0x3e0166be	0.1263685
4	0x3e0d9832	0.13827589
5	0x3e5cbb26	0.21555766
6	0x3d544016	0.05181893
7	0x3b47fdc1	0.003051624
8	0xbd7a8823	-0.061164986
9	0x3ddf46fc	0.10902211
10	0x3d39c73b	0.045356017
11	0xbe225810	-0.15853906
12	0x3d71408f	0.05889946
13	0xbe7ef05d	-0.24896379
14	0x3dc24d2a	0.09487374
15	0x3e66f135	0.2255295
16	0x3df56940	0.119829655
17	0xbdef49d6	-0.11684005
18	0x3d1a0149	0.037598882
19	0xbe3c3530	-0.18379664
20	0x3d1287e0	0.03577411
21	0xbe2cd79c	-0.16879123
22	0xbe5207a6	-0.2051073
23	0x3d932b53	0.07185998
24	0x3dcf5a82	0.10124685
25	0x3d8d2427	0.06891661
26	0xbe4e8e9a	-0.20171586
27	0x3c0ff6bd	0.008786854
28	0xbe079932	-0.13242033
29	0x3dcbea2f	0.09956776
30	0x3e05f7d3	0.13082819
31	0xbb23dd9b	-0.0025003913
32	0xbe0ca899	-0.1373619
33	0xbdd12cf1	-0.1021365
34	0xbe20b6f4	-0.15694791
35	0x3d8f269b	0.06989785
36	0xbdf907bd	-0.12159679
37	0xbe02621f	-0.12732743
38	0xbe6fd022	-0.2341924
39	0x3d468bec	0.048473284
40	0xbd85cd52	-0.06533302
41	0xbd912f18	-0.070890605
42	0x3dc51e3c	0.096249074
43	0xbd8aea03	-0.067829154
44	0x3d7edcf4	0.062222436
45	0x3e0000a4	0.12500244
46	0xbc3cfb4e	-0.011534525
47	0x3c754981	0.014971138
48	0xbddf7cfd	-0.109125115
49	0x3d0481bd	0.03235029
50	0xbe0ab96d	-0.13547297
51	0xbc7bc5d2	-0.015366988
52	0x3e0e5fb3	0.13903694
53	0xbd8e0b31	-0.06935728
54	0x3e667023	0.22503714
55	0x3db5a4f8	0.08869356
56	0x3d87164f	0.06596052
57	0x3e0bfb6e	0.13670132
58	0xbdff81d0	-0.12475932
59	0xbe118391	-0.14210345
60	0xbdea21d6	-0.11432235
61	0x3d75bdf6	0.059995614
62	0xbe28351c	-0.1642651
63	0xbe141fc0	-0.14465237
64	0x3c76f5bb	0.015073235
65	0xbdae9533	-0.08524551
66	0xbdba8dfa	-0.09109111
67	0xbd8dcd73	-0.06923952
68	0x3e29cfbd	0.16583152
69	0xbd8bdbf8	-0.06829065
70	0x3e62f1f9	0.22162618
71	0xbc8d5bfb	-0.017255774
72	0x3c284ff7	0.010272971
73	0x3d03a816	0.03214272
74	0xbe2f876d	-0.17141505
75	0xbe2a624f	-0.16639064
76	0xbd3a9e41	-0.04556108
77	0x3e121181	0.1426449
78	0xbde33aca	-0.110951975
79	0xbddbccf9	-0.10732455
80	0x3c39e0e3	0.011345121
81	0x3c4b52bb	0.012409861
82	0x3dcabaed	0.098989345
83	0x3d8c0d6a	0.06838496
84	0xbc89ba07	-0.016812338
85	0x3e1042b2	0.14087942
86	0x3cf29987	0.029614223
87	0xbe65a7a0	-0.22427225
88	0x3dc9620e	0.098331556
89	0xbd28321f	-0.041063424
90	0xbbab9376	-0.0052360846
91	0x3d0c7270	0.034288824
92	0xbd878d30	-0.06618726
93	0x3d7882ea	0.060671724
94	0x3d8223bf	0.06354474
95	0xbd3f92b4	-0.046770766
96	0x3d3e77b1	0.046500865
97	0xbafb486e	-0.0019171366
98	0x3cf880b3	0.030334806
99	0xbde3617b	-0.11102577
100	0x3dd0b648	0.101910174
101	0x3dd7e83e	0.105423436
102	0x3df9e67e	0.12202166
103	0xbdbaf73d	-0.09129188
104	0x3db73888	0.08946329
105	0x3de196ff	0.11015128
106	0xbd0ab1d0	-0.03386098
107	0x3c212a55	0.009836753
108	0x3e1cbdc0	0.15306759
109	0x3df01181	0.117220886
110	0xbd822a95	-0.06355778
111	0xbdd51002	-0.10403444
112	0xbe36eb3c	-0.17863172
113	0xbd9f2c27	-0.07772093
114	0x3db639f5	0.08897773
115	0xbdd705e5	-0.10499171
116	0xbdb2da41	-0.08733035
117	0xbe331f27	-0.17492352
118	0x3d3011c5	0.042985696
119	0x3de57197	0.11203306
120	0x3d44c4c2	0.048039205
121	0xbdc84cb8	-0.09780258
122	0xbca46ddd	-0.020071918
123	0x3dbdce82	0.09267904
124	0xbdb46e39	-0.08810086
125	0x3d31a931	0.043374244
126	0xbe04a3ab	-0.1295306
127	0x3e349cee	0.17637989
128	0x3d654527	0.055974152
129	0x3d737445	0.059437055
130	0xbdcecfae	-0.100982055
131	0xbd34cc42	-0.044140108
132	0x3cf7637a	0.030198801
133	0x3d13dce2	0.036099322
134	0x3e01bf96	0.1267074
135	0xbd9baa08	-0.0760079
136	0xbd85d706	-0.06535153
137	0x3d917228	0.07101852
138	0x3dda5ec2	0.10662605
139	0x3e5b800c	0.21435565
140	0xbde7023f	-0.11279725
141	0x3dc7e30e	0.09760104
142	0xbd8b2554	-0.06794229
143	0xbc92ee98	-0.017936036
144	0xbc274a1a	-0.010210538
145	0xbd405d0a	-0.04696373
146	0x3d528c43	0.051403295
147	0x3d9a1dd6	0.07525222
148	0xbd6bc6ca	-0.057562627
149	0xbaa5af4f	-0.0012640747
150	0x3e55e476	0.20887932
151	0x3e3fdd9f	0.18736885
152	0x3d9b40a9	0.07580692
153	0xbbe34bc9	-0.0069365245
154	0x3e8ec8d9	0.2788761
155	0xbdfc7033	-0.12326088
156	0xbdb454dc	-0.08805248
157	0x3e1af551	0.15132643
158	0xbe05fec2	-0.13085464
159	0x3e2bf88f	0.16794036
160	0xbd84df04	-0.06487849
161	0x3b95076a	0.004548003
162	0x3df30adb	0.11867305
163	0xbe2bdb25	-0.16782816
164	0xbdedd0f6	-0.11612122
165	0x3e04a8ce	0.12955019
166	0x3e0363c4	0.12831026
167	0x3e1ffdaf	0.15624116
168	0xbd909022	-0.07058741
169	0x3de1ec9b	0.11031457
170	0x3e28f9e3	0.16501574
171	0x3dc555c3	0.096354984
172	0xbc92803a	-0.017883409
173	0x3bfcc798	0.007714223
174	0xbdf47e89	-0.11938197
175	0xbc29e2da	-0.010369027
176	0xbd3baf62	-0.045821555
177	0xbd7b3422	-0.061329015
178	0x3e2f7ba9	0.17137016
179	0x3e52fec3	0.20604996
180	0x3a35c2a3	0.0006933605
181	0xbd2ff6c1	-0.042959932
182	0xbcd96610	-0.026537925
183	0x3df92e91	0.12167085
184	0xbd459805	-0.04824068
185	0x3e16efa1	0.14739849
186	0x3ce56f74	0.028007247
187	0xbbc003f0	-0.0058598444
188	0x3d744719	0.059638117
189	0xbd3e29e2	-0.04642666
190	0xbe02d5f9	-0.12776937
191	0xbe475efe	-0.1946983
192	0xbe45d2c8	-0.19318688
193	0xbd605da7	-0.054776814
194	0x3e310e9e	0.17290732
195	0xbe174923	-0.14773993
196	0x3ca62112	0.020279441
197	0xbd9f9df8	-0.07793802
198	0xbd157b86	-0.036494754
199	0x3d90fc23	0.07079341
200	0xbe616c23	-0.22013907
201	0xbcfc01c3	-0.030762559
202	0xbe2c0333	-0.16798095
203	0x3d47202e	0.048614673
204	0x3de0ee91	0.10983003
205	0x3e36a3df	0.1783595
206	0x3e12ef1a	0.14349023
207	0x3de1c7d9	0.11024446
208	0x3d5e2c8e	0.05424171
209	0x3d8503b3	0.06494846
210	0xbe3072e7	-0.17231332
211	0xbcae330b	-0.021264574
212	0xbdbcfcde	-0.09227918
213	0x3de4e26b	0.11175998
214	0x3e21595c	0.15756744
215	0x3ddc069b	0.107434474
216	0xbcbb1e0e	-0.02284148
217	0x3d57dded	0.05270188
218	0xbdd1691a	-0.10225125
219	0x3dd7ae7d	0.10531328
220	0xbd7e547a	-0.062092282
221	0x3e018075	0.12646659
222	0xbde9eb08	-0.11421782
223	0x3c9613f7	0.018320067
224	0x3dfe6dee	0.12423311
225	0x3e16ff99	0.1474594
226	0xbdc83524	-0.09775761
227	0x3dd424b7	0.10358565
228	0x3e592e42	0.21209052
229	0xbdcc8ea3	-0.09988143
230	0xbdaa5d2d	-0.08318553
231	0x3da309df	0.07960867
232	0xbd9b3fa4	-0.07580498
233	0xbdeed4cf	-0.11661684
234	0x3dc6d2d3	0.0970818
235	0x3cf04bcf	0.029333023
236	0xbd868e9d	-0.0657017
237	0x3cb193ba	0.021676887
238	0xbdc2b2d7	-0.09506767
239	0xbe00c460	-0.12574911
240	0x3e59efa1	0.21282817
241	0xbd5be40a	-0.053684272
242	0xbdabdc36	-0.08391611
243	0x3c9d78a9	0.019222574
244	0xbbfa9424	-0.0076470543
245	0xbd8e9304	-0.06961635
246	0x3df213d0	0.11820185
247	0x3c99061a	0.018679667
248	0x3daac5aa	0.08338483
249	0xbe43e231	-0.19129254
250	0xbd1f1d20	-0.038846135
251	0xbda57039	-0.080780454
252	0x3e4e78cc	0.20163268
253	0x3e00537f	0.12531851
254	0x3e10b203	0.14130406
255	0xbdd20f04	-0.1025677

0.bias f4 [256]
0	0x3c9b77ab	0.01897796
1	0xbd0badc3	-0.03410126
2	0xbd304250	-0.04303199
3	0x3c307827	0.010770834
4	0x3cfbcc63	0.030737108
5	0xbd1e512a	-0.038651623
6	0x3d6ca2ee	0.05777257
7	0x3d83ead4	0.06441274
8	0x3d58d2e1	0.052935485
9	0xbcb476f9	-0.022029387
10	0x3d55fe12	0.052244253
11	0xbcebda16	-0.028790515
12	0x3db92492	0.09040178
13	0x3d35210c	0.04422097
14	0x3d66814e	0.05627566
15	0xbd179e31	-0.037016097
16	0x3b9311c5	0.0044882023
17	0xbcef22e9	-0.029191451
18	0xbbdc5093	-0.0067234724
19	0x3d818e78	0.06326002
20	0x3cef334b	0.029199263
21	0x3d12d199	0.03584442
22	0x3d7fd15b	0.062455516
23	0x3d8f4b8a	0.0699683
24	0x3d25ab26	0.040446423
25	0x3d957bde	0.072990164
26	0x3d76a711	0.06021792
27	0x3d89a88d	0.06721602
28	0x3de8e818	0.11372393
29	0xbd29dc12	-0.04146964
30	0x3d8c6a68	0.06856233
31	0x3c63a623	0.013894591
32	0x3d10d800	0.035362244
33	0x3d81a9fc	0.0633125
34	0x3c4a7ee0	0.012359351
35	0x3d9b985a	0.07597418
36	0x3d7d1fc5	0.061797876
37	0x3d490a6c	0.049082205
38	0x3d90151d	0.07035277
39	0x3da7eba8	0.08199245
40	0x3dbb090f	0.09132587
41	0x3ca64016	0.02029423
42	0x3b47aa26	0.0030466407
43	0x3d968c1f	0.07350945
44	0x3d183714	0.0371619
45	0x3d6c2947	0.057656553
46	0xbd564fd7	-0.052322235
47	0x3d8de445	0.069283046
48	0xbce66dca	-0.028128523
49	0x3d3e2d70	0.04643005
50	0x3d1d276f	0.038367685
51	0x3dade0cd	0.08490143
52	0x3d27345d	0.040821422
53	0x3d39bb75	0.04534479
54	0x3de75186	0.11294846
55	0x3df0c5a0	0.11756444
56	0x3d4f92c1	0.050677065
57	0xbcc739e4	-0.024319597
58	0x3da50ab5	0.08058683
59	0x3d8d8349	0.06909806
60	0xbd05ee74	-0.03269811
61	0xbc30ef9d	-0.010799316
62	0x3cbcf3e8	0.023065522
63	0x3d26b32c	0.040698215
64	0x3da7d7a7	0.08195429
65	0xbbee9588	-0.007281009
66	0x3d8baa6d	0.068196155
67	0x3ce8c560	0.028414428
68	0x3c8a004e	0.016845848
69	0x3db9c27d	0.09070299
70	0xbd2ff2b7	-0.04295608
71	0x3d199a6c	0.037500784
72	0x3d90bf92	0.07067789
73	0x3cfbd446	0.030740868
74	0x3d8017f1	0.062545665
75	0x3d92435d	0.07141755
76	0xbd3263fb	-0.04355238
77	0x3c6f7a2c	0.01461653
78	0x3cf413f1	0.029794665
79	0x3dc9ef6e	0.09860121
80	0xbc05e046	-0.008171147
81	0x3d887e42	0.06664707
82	0xbd14a49d	-0.0362898
83	0x3d48eeaf	0.04905575
84	0x3d5ecf49	0.0543969
85	0x3ddb9630	0.10722005
86	0x3dc3e2ab	0.09564718
87	0x3d663afe	0.056208603
88	0x3ddc3955	0.10753123
89	0x3d032e3a	0.032026507
90	0x3d5da55e	0.054112785
91	0x3d1e84f8	0.038701028
92	0x3de0cd59	0.10976667
93	0x3da66c1e	0.081260905
94	0x3c658324	0.014008317
95	0x3d26863b	0.040655356
96	0x3d51075f	0.05103242
97	0xbbde250b	-0.006779318
98	0x3c09cf00	0.008411169
99	0xbd575f18	-0.052580923
100	0x3df0ebae	0.11763702
101	0x3d3edc79	0.046596978
102	0x3d5ef28b	0.054430526
103	0xbd280f03	-0.04102994
104	0x3d9ef4d4	0.07761541
105	0x3c4a3e29	0.012343922
106	0x3d6ab72c	0.057303593
107	0x3db03586	0.08603959
108	0x3d9d086f	0.07667624
109	0x3d6448b6	0.055733405
110	0x3bfbe949	0.007687722
111	0x3c4d4bbc	0.0125302635
112	0x3d369cb8	0.044583052
113	0x3d2971d5	0.041368324
114	0x3d9f611a	0.077821925
115	0x3c9f450e	0.019442108
116	0x3cf61429	0.03003891
117	0x3bf9d7b4	0.007624591
118	0x3d82bf58	0.06384152
119	0x3d5ce56a	0.053929724
120	0x3d4a9079	0.049454186
121	0x3d98a6b4	0.07453671
122	0x3d39ee8f	0.045393523
123	0x3d37ab5e	0.044841163
124	0xbd602c49	-0.054729734
125	0x3d8c5764	0.06852606
126	0x3d11e780	0.035621166
127	0xbd5ce060	-0.05392492
128	0xbd0b8e35	-0.034071166
129	0xbd1e6438	-0.038669795
130	0xbd3113fa	-0.04323194
131	0x3db45ec8	0.088071406
132	0x3cb52ce8	0.02211614
133	0xbd258b4c	-0.040416047
134	0xbb98d8dc	-0.0046645235
135	0x3da8a558	0.08234662
136	0x3cd94158	0.026520416
137	0x3cfb698e	0.03068998
138	0x3dcd83b8	0.10034889
139	0x3c574b8c	0.01314057
140	0x3d8ac3aa	0.06775601
141	0x3dbfd22e	0.093662605
142	0x3d9cf911	0.07664693
143	0x3caae3b5	0.020860532
144	0x3d0672e4	0.032824412
145	0x3d7aee2f	0.061262306
146	0x3d58d2e7	0.052935507
147	0x3d9a5f16	0.075376675
148	0x3d6f38f0	0.05840391
149	0x3d8d976b	0.06913646
150	0x3d26143f	0.040546652
151	0x3d0a4672	0.033758588
152	0xbd0d36e0	-0.03447616
153	0xbd38b486	-0.045094036
154	0x3d090c73	0.033459138
155	0x3d621ae0	0.05520141
156	0x3c82019f	0.015869914
157	0x3db15421	0.086586244
158	0x3df68627	0.12037306
159	0x3d8955d2	0.06705822
160	0x3deb0c81	0.11476994
161	0x3d21a7ba	0.039466597
162	0x3d4e3dcb	0.0503519
163	0x3a8bed3b	0.0010675559
164	0x3da200c1	0.079103
165	0x3d08f67f	0.033438202
166	0x3dd49cfa	0.103815034
167	0x3d64a05c	0.055816993
168	0x3cbb0596	0.022829812
169	0x3d4cb396	0.049975954
170	0xbbeadb3a	-0.007167247
171	0x3cf3f1fd	0.029778475
172	0xbc34ac2f	-0.01102738
173	0xbd29675f	-0.041358348
174	0xbd257a51	-0.040399853
175	0x3d9c9681	0.07645894
176	0x3db6c636	0.089245245
177	0x3caa4e43	0.020789271
178	0x3d9ae48d	0.07563124
179	0x3d08ec1b	0.033428293
180	0x3d6b528f	0.05745178
181	0x3d57157d	0.052510727
182	0x3d1f7d34	0.038937762
183	0x3d2137bf	0.039359804
184	0x3d84a557	0.064768486
185	0xbd078a21	-0.033090714
186	0x3d9c5c7d	0.07634828
187	0x3d6ca36d	0.057773042
188	0x3df95abb	0.121755086
189	0x3d519ff5	0.051177938
190	0x3ceb7ec4	0.02874697
191	0x3d5796a5	0.0526339
192	0x3d6cb4e6	0.057789706
193	0x3dbc9929	0.092089005
194	0x3d819c85	0.06328682
195	0x3d57c393	0.05267675
196	0x3da0a1ab	0.07843336
197	0x3d590c35	0.052990157
198	0x3dac5076	0.08413784
199	0xbd2fd6cd	-0.04292946
200	0x3c4e3e84	0.012588147
201	0x3bb68b6e	0.0055708205
202	0x3d64f19c	0.05589448
203	0x3d40be8c	0.04705672
204	0x3d8591df	0.06521963
205	0x3d3d6955	0.04624303
206	0x3da31aa6	0.07964067
207	0x3d5cb71f	0.053885575
208	0xbd32f0b7	-0.043686595
209	0x3ccee720	0.025256693
210	0x3d353a53	0.044245075
211	0x3d65a0f5	0.056061704
212	0x3d17b817	0.037040796
213	0x3c4877e2	0.012235614
214	0x3d34597f	0.044030663
215	0xbb95ce36	-0.0045717014
216	0x3d898a92	0.06715883
217	0x3ded7351	0.115942605
218	0x3da96574	0.08271304
219	0xbc4c219a	-0.012459183
220	0x3d836ca1	0.06417204
221	0x3dc8043e	0.09766434
222	0x3d9a8f09	0.07546813
223	0x3c54afab	0.012981336
224	0xbd26d646	-0.04073169
225	0x3d76f594	0.060292795
226	0x3da57065	0.08078078
227	0x3cd3dedb	0.025863102
228	0x3d1b0e2b	0.03785531
229	0x3d5edf14	0.054411963
230	0x3c89a33b	0.016801467
231	0x3d6264b1	0.055271808
232	0x3d939217	0.07205599
233	0x3cbc7612	0.023005519
234	0xbca0027c	-0.019532435
235	0x3db24f13	0.087064885
236	0x3d81b0c5	0.06332544
237	0x3c497767	0.012296534
238	0x3d702222	0.0586263
239	0x3b9773a3	0.0046219393
240	0x3da7287f	0.08162021
241	0x3dac17c6	0.08402972
242	0xbd4aa144	-0.0494702
243	0x3dce73f0	0.10080707
244	0x3d2bcbd4	0.041942433
245	0x3db2036b	0.08692058
246	0x3dcbd565	0.09952811
247	0x3d274793	0.040839743
248	0x3db8a987	0.0901671
249	0x3cff1b1c	0.031140856
250	0x3da876fa	0.08225818
251	0x3d4b3f48	0.049620897
252	0x3d8ba84f	0.06819212
253	0x3c848cc7	0.01618041
254	0x3cbcdb2c	0.023053728
255	0x3d44ceee	0.048048906

3.weight f4 [6, 256]
0	0xbdfcbec3	-0.123410724
1	0xbd2fbdc8	-0.0429056
2	0x3cb08cf4	0.021551587
3	0x3daab9b0	0.08336198
4	0xbe51ce4c	-0.20488852
5	0x3c31d332	0.010853576
6	0xbe548d4c	-0.20757025
7	0xbe0ac3af	-0.1355121
8	0xbdfaeae3	-0.12251832
9	0x3d0ad5cd	0.033895303
10	0x3e2be476	0.1678637
11	0xbce92ee5	-0.028464744
12	0x3e0a50ba	0.13507357
13	0xbe2b774e	-0.1674473
14	0xbe574e4c	-0.21025962
15	0x3ceb4f85	0.028724441
16	0xbe3cee29	-0.18450226
17	0xbd117813	-0.035514902
18	0x3ca41c5d	0.020033056
19	0xbe12f57c	-0.14351457
20	0xbdefeae1	-0.117147215
21	0xbe642e5b	-0.22283308
22	0x3deecc12	0.11660017
23	0xbe4b4a40	-0.19852543
24	0xbe353610	-0.17696404
25	0xba5de792	-0.00084649876
26	0x3e5422fc	0.2071647
27	0xbe06bf55	-0.13158925
28	0x3e3903a6	0.18067798
29	0xbcf3554b	-0.029703757
30	0x3e4ffceb	0.20311324
31	0xbdaa086d	-0.08302388
32	0xbe14a884	-0.14517409
33	0xbe42fc4c	-0.19041556
34	0xbdf85073	-0.121247195
35	0xbe469856	-0.19394049
36	0x3e4011c5	0.18756779
37	0x3dbbfdc8	0.09179264
38	0xbe3738ba	-0.17892733
39	0xbe334f4c	-0.17510718
40	0x3e20578f	0.15658401
41	0xbc62a127	-0.013832367
42	0xbe82e721	-0.25566962
43	0x3e455b70	0.19273162
44	0x3d909e34	0.07061425
45	0x3e305b7d	0.172224
46	0xbd02922d	-0.031877685
47	0x3dde677c	0.10859582
48	0xbbdfd494	-0.006830761
49	0x3d461178	0.048356503
50	0xbdd7fa51	-0.10545791
51	0x3e4db77b	0.20089523
52	0xbe3fe9d1	-0.18741538
53	0x3e40bab4	0.18821222
54	0x3d9de637	0.077099256
55	0x3e335d09	0.17515959
56	0x3e44f7cd	0.19235153
57	0x3b078620	0.002067931
58	0xbe50f0d6	-0.20404372
59	0xbe52ca47	-0.20584975
60	0x3d04f5c0	0.032460928
61	0xbd28ba26	-0.04119315
62	0xbe3f0c29	-0.18656982
63	0xbe5d062d	-0.21584387
64	0x3de54cdb	0.111963
65	0xbe540312	-0.20704296
66	0xbe2c11a8	-0.1680361
67	0xbe1e6046	-0.15466413
68	0xbe8c4574	-0.2739674
69	0x3e3fdbc0	0.18736172
70	0x3c9806c8	0.018557921
71	0x3e30f113	0.17279463
72	0x3de71ad9	0.11284418
73	0x3e267902	0.16257098
74	0xbe10ed77	-0.14153086
75	0x3e4ed331	0.2019775
76	0xbd3ebd0e	-0.046567015
77	0xbe453e34	-0.1926201
78	0xbe2c8467	-0.16847382
79	0x3e199288	0.14997303
80	0xbd86df99	-0.065856166
81	0x3e26c23d	0.16285034
82	0x3d2ac509	0.041691814
83	0xbe3c4af8	-0.18387973
84	0x3de9f050	0.11422789
85	0x3e14f2e3	0.14545779
86	0x3e3261a7	0.17420064
87	0xbe3fbe96	-0.18725047
88	0x3e426028	0.18981993
89	0xbe32b22c	-0.1745078
90	0x3cb1aa96	0.021687787
91	0x3df2d050	0.11856139
92	0x3e4bc99c	0.19901127
93	0xbe2fe31d	-0.1717648
94	0xbe0c597d	-0.13706012
95	0xbe2db726	-0.16964397
96	0xbe153fbf	-0.14575098
97	0xbda3f2a9	-0.08005268
98	0xbe2235ad	-0.15840788
99	0xbb39c33b	-0.0028345126
100	0x3e3a0b01	0.1816826
101	0x3c485ead	0.012229604
102	0xbe3e2917	-0.18570362
103	0x3becd890	0.0072279647
104	0xbe3252f1	-0.17414452
105	0xbd3c534f	-0.045977887
106	0x3dee023c	0.1162152
107	0x3e0f2aca	0.13981166
108	0x3e49b8c9	0.19699396
109	0xbe3bca3e	-0.18338868
110	0xbe5c455c	-0.21510834
111	0x3c00119f	0.007816701
112	0xbe3f6ece	-0.18694612
113	0x3cd26528	0.025683
114	0x3d7ac080	0.06121874
115	0xbe992d75	-0.29917493
116	0xbe01f395	-0.12690575
117	0xbdf9fc9c	-0.122063845
118	0x3e31637f	0.17323111
119	0xbdead91c	-0.114671916
120	0xbc755993	-0.014974969
121	0x3e1aca8b	0.15116327
122	0xbe622674	-0.22084981
123	0x3e2c77c3	0.1684256
124	0xbd0eb5d9	-0.034841392
125	0x3e3c959c	0.18416446
126	0xbe1ea385	-0.15492065
127	0xbd36a1e5	-0.04458799
128	0xbb507669	-0.003180886
129	0xbd4e86ef	-0.05042165
130	0xbc5694f0	-0.013097033
131	0xbe44ed35	-0.19231112
132	0xbe7e33e2	-0.24824479
133	0xbcdb9755	-0.02680556
134	0x3e24700f	0.16058372
135	0x3e399ca2	0.18126157
136	0xbe0fcffc	-0.14044183
137	0xbe1b59b2	-0.15170935
138	0x3e0dcf5f	0.13848637
139	0x3e4a3155	0.19745381
140	0xbe5f532e	-0.21809074
141	0x3e38df4e	0.18053934
142	0xbe4a6711	-0.19765879
143	0xbddd72b0	-0.108128905
144	0xbe7d3ec5	-0.24730976
145	0xbe29cec0	-0.16582775
146	0xbe46cdcf	-0.19414447
147	0xbe42456c	-0.18971795
148	0xbd462e4c	-0.048383996
149	0x3e2f87b8	0.17141616
150	0xbdcd54cd	-0.1002594
151	0xbddd96f2	-0.10819806
152	0xbb5d9e4b	-0.0033816274
153	0x3d19c1c2	0.037538297
154	0x3d857c97	0.06517904
155	0xbe493849	-0.19650377
156	0xbdf9d647	-0.12199073
157	0xbe45671e	-0.19277617
158	0x3e221fe4	0.15832478
159	0x3e2e355b	0.17012541
160	0x3e14723f	0.14496706
161	0xbe0c012c	-0.13672322
162	0x3e1fd0e1	0.15607025
163	0xbe2f4670	-0.17116714
164	0xbe2a27cd	-0.16616745
165	0xbbe70ac2	-0.007050843
166	0x3e1d6323	0.15369849
167	0xbe34575c	-0.1761145
168	0x3e1fe669	0.15615238
169	0xbdf6ec63	-0.12056806
170	0x3cba3a0c	0.022732757
171	0xbe5db2b5	-0.21650203
172	0xbe23e60d	-0.16005726
173	0xbd0b53bc	-0.034015402
174	0xbd139616	-0.036031805
175	0x3e466f2b	0.19378345
176	0x3db9cb79	0.090720125
177	0xbe249d68	-0.1607567
178	0x3e3db115	0.18524583
179	0x3dbb60e5	0.091493405
180	0xbe5a992c	-0.21347493
181	0x3e38438d	0.17994519
182	0x3e2f9a45	0.17148693
183	0x3e3fda60	0.18735647
184	0x3d864595	0.065562405
185	0x3d105ac3	0.035242807
186	0x3dcd714c	0.10031375
187	0xbe4f9ab1	-0.20273854
188	0x3e2e985e	0.17050311
189	0xbe2297e5	-0.15878256
190	0xbe227ec2	-0.15868667
191	0x3dd6680f	0.10469066
192	0xbdf960db	-0.12176677
193	0x3e2114b7	0.15730558
194	0xbe31cd54	-0.17363483
195	0xbe3ae1a2	-0.18250135
196	0x3e4a02eb	0.19727676
197	0xbe7bae4a	-0.24578205
198	0x3defe5fe	0.117137894
199	0xbd3562ae	-0.04428356
200	0xbe5e34fd	-0.21699901
201	0x3ba1df47	0.004939947
202	0x3e2b6511	0.16737773
203	0xbe29d5ba	-0.16585436
204	0xbdc6e0bc	-0.097108334
205	0xbe63bfb7	-0.22241102
206	0x3e235bae	0.15952942
207	0xbe06a1e7	-0.13147698
208	0xbbaddfce	-0.0053062206
209	0xbe8a2a50	-0.26985407
210	0x3e19311c	0.1496014
211	0x3e190f77	0.14947306
212	0x3dca0280	0.09863758
213	0x3d8d5862	0.06901623
214	0xbe309bdc	-0.17246956
215	0x3ca1c79f	0.019748507
216	0xbe33a224	-0.1754232
217	0x3e302eb6	0.17205319
218	0x3e28d513	0.16487531
219	0xbe494c6f	-0.19658063
220	0x3e32a72a	0.1744658
221	0x3e18409e	0.148684
222	0xbe50d037	-0.20391928
223	0xbe4a8066	-0.19775543
224	0xbc70b386	-0.014691239
225	0xbddd8639	-0.108166166
226	0x3e357281	0.17719461
227	0x3e8b7867	0.27240297
228	0x3dce2beb	0.100669704
229	0x3e465691	0.1936896
230	0x3c1d8295	0.009613653
231	0xbe444546	-0.1916705
232	0xbe254f01	-0.16143419
233	0xbe019aa9	-0.12656654
234	0x3d215e61	0.039396647
235	0x3e37ac17	0.17936741
236	0xbe0a9327	-0.13532697
237	0xbdd2705a	-0.102753356
238	0xbe66aa4b	-0.22525899
239	0xbe26a429	-0.1627356
240	0xbe3c1fb5	-0.1837147
241	0x3deea389	0.116522856
242	0x3ce6d6d0	0.028178602
243	0x3e4178c6	0.18893728
244	0xbe5cfdd1	-0.21581198
245	0x3d81c2c8	0.0633598
246	0xbe1351d8	-0.1438669
247	0xbe27e2f8	-0.16395175
248	0x3dc088f9	0.094011255
249	0xbe54ebb2	-0.20793036
250	0xbe520c43	-0.2051249
251	0xbd46c848	-0.048530847
252	0x3e422b57	0.18961845
253	0xbe5aca90	-0.21366334
254	0xbd98d686	-0.07462792
255	0xbe42733c	-0.18989271

3.bias f4 [6]
0	0x3d9effe2	0.077636495
1	0xbd559f9e	-0.052154176
2	0xbcbdfa6a	-0.023190696
3	0x39e1ee98	0.0004309311
4	0xbcfaae4f	-0.030600695
5	0xbca5c002	-0.020233158
